…
s://localhost:8080/"},"id":"-E3M-nUnykhN","executionInfo":{"status":"ok","timestamp":1628354186465,"user_tz":-540,"elapsed":503,"user":{"displayName":"JINSU KIM","photoUrl":"https://lh3.googleusercontent.com/a-/AOh14GgcLu5kpD5kTukDHzQytyk6kDsra-9npu-W2pfp=s64","userId":"17278722132218225196"}},"outputId":"7f1bf8b8-1d16-4d96-c114-8b5dc1c97c5c"},"source":["from torchvision.models import resnet18\n","resnet = resnet18(pretrained = False)\n","resnet.children"],"execution_count":3,"outputs":[{"output_type":"execute_result","data":{"text/plain":["<bound method Module.children of ResNet(\n","  (conv1): Conv2d(3, 64, kernel_size=(7, 7), stride=(2, 2), padding=(3, 3), bias=False)\n","  (bn1): BatchNorm2d(64, eps=1e-05, momentum=0.1, affine=True, track_running_stats=True)\n","  (relu): ReLU(inplace=True)\n","  (maxpool): MaxPool2d(kernel_size=3, stride=2, padding=1, dilation=1, ceil_mode=False)\n","  (layer1): Sequential(\n","    (0): BasicBlock(\n","      (conv1): Conv2d(64, 64, kernel_size=(3, 3), stride=(1, 1), padding=(1, 1), bias=False)\n","      (bn1): BatchNorm2d(64, eps=1e-05, momentum=0.1, affine=True, track_running_stats=True)\n","      (relu): ReLU(inplace=True)\n","      (conv2): Conv2d(64, 64, kernel_size=(3, 3), stride=(1, 1), padding=(1, 1), bias=False)\n","      (bn2): BatchNorm2d(64, eps=1e-05, momentum=0.1, affine=True, track_running_stats=True)\n","    )\n","    (1): BasicBlock(\n","      (conv1): Conv2d(64, 64, kernel_size=(3, 3), stride=(1, 1), padding=(1, 1), bias=False)\n","      (bn1): BatchNorm2d(64, eps=1e-05, momentum=0.1, affine=True, track_running_stats=True)\n","      (relu): ReLU(inplace=True)\n","      (conv2): Conv2d(64, 64, kernel_size=(3, 3), stride=(1, 1), padding=(1, 1), bias=False)\n","      (bn2): BatchNorm2d(64, eps=1e-05, momentum=0.1, affine=True, track_running_stats=True)\n","    )\n","  )\n","  (layer2): Sequential(\n","    (0): BasicBlock(\n","      (conv1): Conv2d(64, 128, kernel_size=(3, 3), stride=(2, 2), padding=(1, 1), bias=False)\n","      (bn1): BatchNorm2d(128, eps=1e-05, momentum=0.1, affine=True, track_running_stats=True)\n","      (relu): ReLU(inplace=True)\n","      (conv2): Conv2d(128, 128, kernel_size=(3, 3), stride=(1, 1), padding=(1, 1), bias=False)\n","      (bn2): BatchNorm2d(128, eps=1e-05, momentum=0.1, affine=True, track_running_stats=True)\n","      (downsample): Sequential(\n","        (0): Conv2d(64, 128, kernel_size=(1, 1), stride=(2, 2), bias=False)\n","        (1): BatchNorm2d(128, eps=1e-05, momentum=0.1, affine=True, track_running_stats=True)\n","      )\n","    )\n","    (1): BasicBlock(\n","      (conv1): Conv2d(128, 128, kernel_size=(3, 3), stride=(1, 1), padding=(1, 1), bias=False)\n","      (bn1): BatchNorm2d(128, eps=1e-05, momentum=0.1, affine=True, track_running_stats=True)\n","      (relu): ReLU(inplace=True)\n","      (conv2): Conv2d(128, 128, kernel_size=(3, 3), stride=(1, 1), padding=(1, 1), bias=False)\n","      (bn2): BatchNorm2d(128, eps=1e-05, momentum=0.1, affine=True, track_running_stats=True)\n","    )\n","  )\n","  (layer3): Sequential(\n","    (0): BasicBlock(\n","      (conv1): Conv2d(128, 256, kernel_size=(3, 3), stride=(2, 2), padding=(1, 1), bias=False)\n","      (bn1): BatchNorm2d(256, eps=1e-05, momentum=0.1, affine=True, track_running_stats=True)\n","      (relu): ReLU(inplace=True)\n","      (conv2): Conv2d(256, 256, kernel_size=(3, 3), stride=(1, 1), padding=(1, 1), bias=False)\n","      (bn2): BatchNorm2d(256, eps=1e-05, momentum=0.1, affine=True, track_running_stats=True)\n","      (downsample): Sequential(\n","        (0): Conv2d(128, 256, kernel_size=(1, 1), stride=(2, 2), bias=False)\n","        (1): BatchNorm2d(256, eps=1e-05, momentum=0.1, affine=True, track_running_stats=True)\n","      )\n","    )\n","    (1): BasicBlock(\n","      (conv1): Conv2d(256, 256, kernel_size=(3, 3), stride=(1, 1), padding=(1, 1), bias=False)\n","      (bn1): BatchNorm2d(256, eps=1e-05, momentum=0.1, affine=True, track_running_stats=True)\n","      (relu): ReLU(inplace=True)\n","      (conv2): Conv2d(256, 256, kernel_size=(3, 3), stride=(1, 1), padding=(1, 1), bias=False)\n","      (bn2): BatchNorm2d(256, eps=1e-05, momentum=0.1, affine=True, track_running_stats=True)\n","    )\n","  )\n","  (layer4): Sequential(\n","    (0): BasicBlock(\n","      (conv1): Conv2d(256, 512, kernel_size=(3, 3), stride=(2, 2), padding=(1, 1), bias=False)\n","      (bn1): BatchNorm2d(512, eps=1e-05, momentum=0.1, affine=True, track_running_stats=True)\n","      (relu): ReLU(inplace=True)\n","      (conv2): Conv2d(512, 512, kernel_size=(3, 3), stride=(1, 1), padding=(1, 1), bias=False)\n","      (bn2): BatchNorm2d(512, eps=1e-05, momentum=0.1, affine=True, track_running_stats=True)\n","      (downsample): Sequential(\n","        (0): Conv2d(256, 512, kernel_size=(1, 1), stride=(2, 2), bias=False)\n","        (1): BatchNorm2d(512, eps=1e-05, momentum=0.1, affine=True, track_running_stats=True)\n","      )\n","    )\n","    (1): BasicBlock(\n","      (conv1): Conv2d(512, 512, kernel_size=(3, 3), stride=(1, 1), padding=(1, 1), bias=False)\n","      (bn1): BatchNorm2d(512, eps=1e-05, momentum=0.1, affine=True, track_running_stats=True)\n","      (relu): ReLU(inplace=True)\n","      (conv2): Conv2d(512, 512, kernel_size=(3, 3), stride=(1, 1), padding=(1, 1), bias=False)\n","      (bn2): BatchNorm2d(512, eps=1e-05, momentum=0.1, affine=True, track_running_stats=True)\n","    )\n","  )\n","  (avgpool): AdaptiveAvgPool2d(output_size=(1, 1))\n","  (fc): Linear(in_features=512, out_features=1000, bias=True)\n",")>"]},"metadata":{"tags":[]},"execution_count":3}]},{"cell_type":"code","metadata":{"colab":{"base_uri":"https://localhost:8080/","height":85,"referenced_widgets":["78a885f2b67e45daa497a6b06a780952","a7981187d9684818a14dbb713e7f0e19","0f2962594b2e49a595d8dede606538bf","78993f6d2a1947d6ad4f0ee624d50560","3a4be84da2be47c590a607615c7ac9f1","8380caf34
…
google-0cc3c7bd.pth\" to /root/.cache/torch/hub/checkpoints/inception_v3_google-0cc3c7bd.pth\n"],"name":"stderr"},{"output_type":"display_data","data":{"application/vnd.jupyter.widget-view+json":{"model_id":"1b404549a9b54ca58b8dc8b5bdb60066","version_minor":0,"version_major":2},"text/plain":["HBox(children=(FloatProgress(value=0.0, max=108949747.0), HTML(value='')))"]},"metadata":{"tags":[]}},{"output_type":"stream","text":["\n"],"name":"stdout"},{"output_type":"execute_result","data":{"text/plain":["<bound method Module.children of Inception3(\n","  (Conv2d_1a_3x3): BasicConv2d(\n","    (conv): Conv2d(3, 32, kernel_size=(3, 3), stride=(2, 2), bias=False)\n","    (bn): BatchNorm2d(32, eps=0.001, momentum=0.1, affine=True, track_running_stats=True)\n","  )\n","  (Conv2d_2a_3x3): BasicConv2d(\n","    (conv): Conv2d(32, 32, kernel_size=(3, 3), stride=(1, 1), bias=False)\n","    (bn): BatchNorm2d(32, eps=0.001, momentum=0.1, affine=True, track_running_stats=True)\n","  )\n","  (Conv2d_2b_3x3): BasicConv2d(\n","    (conv): Conv2d(32, 64, kernel_size=(3, 3), stride=(1, 1), padding=(1, 1), bias=False)\n","    (bn): BatchNorm2d(64, eps=0.001, momentum=0.1, affine=True, track_running_stats=True)\n","  )\n","  (maxpool1): MaxPool2d(kernel_size=3, stride=2, padding=0, dilation=1, ceil_mode=False)\n","  (Conv2d_3b_1x1): BasicConv2d(\n","    (conv): Conv2d(64, 80, kernel_size=(1, 1), stride=(1, 1), bias=False)\n","    (bn): BatchNorm2d(80, eps=0.001, momentum=0.1, affine=True, track_running_stats=True)\n","  )\n","  (Conv2d_4a_3x3): BasicConv2d(\n","    (conv): Conv2d(80, 192, kernel_size=(3, 3), stride=(1, 1), bias=False)\n","    (bn): BatchNorm2d(192, eps=0.001, momentum=0.1, affine=True, track_running_stats=True)\n","  )\n","  (maxpool2): MaxPool2d(kernel_size=3, stride=2, padding=0, dilation=1, ceil_mode=False)\n","  (Mixed_5b): InceptionA(\n","    (branch1x1): BasicConv2d(\n","      (conv): Conv2d(192, 64, kernel_size=(1, 1), stride=(1, 1), bias=False)\n","      (bn): BatchNorm2d(64, eps=0.001, momentum=0.1, affine=True, track_running_stats=True)\n","    )\n","    (branch5x5_1): BasicConv2d(\n","      (conv): Conv2d(192, 48, kernel_size=(1, 1), stride=(1, 1), bias=False)\n","      (bn): BatchNorm2d(48, eps=0.001, momentum=0.1, affine=True, track_running_stats=True)\n","    )\n","    (branch5x5_2): BasicConv2d(\n","      (conv): Conv2d(48, 64, kernel_size=(5, 5), stride=(1, 1), padding=(2, 2), bias=False)\n","      (bn): BatchNorm2d(64, eps=0.001, momentum=0.1, affine=True, track_running_stats=True)\n","    )\n","    (branch3x3dbl_1): BasicConv2d(\n","      (conv): Conv2d(192, 64, kernel_size=(1, 1), stride=(1, 1), bias=False)\n","      (bn): BatchNorm2d(64, eps=0.001, momentum=0.1, affine=True, track_running_stats=True)\n","    )\n","    (branch3x3dbl_2): BasicConv2d(\n","      (conv): Conv2d(64, 96, kernel_size=(3, 3), stride=(1, 1), padding=(1, 1), bias=False)\n","      (bn): BatchNorm2d(96, eps=0.001, momentum=0.1, affine=True, track_running_stats=True)\n","    )\n","    (branch3x3dbl_3): BasicConv2d(\n","      (conv): Conv2d(96, 96, kernel_size=(3, 3), stride=(1, 1), padding=(1, 1), bias=False)\n","      (bn): BatchNorm2d(96, eps=0.001, momentum=0.1, affine=True, track_running_stats=True)\n","    )\n","    (branch_pool): BasicConv2d(\n","      (conv): Conv2d(192, 32, kernel_size=(1, 1), stride=(1, 1), bias=False)\n","      (bn): BatchNorm2d(32, eps=0.001, momentum=0.1, affine=True, track_running_stats=True)\n","    )\n","  )\n","  (Mixed_5c): InceptionA(\n","    (branch1x1): BasicConv2d(\n","      (conv): Conv2d(256, 64, kernel_size=(1, 1), stride=(1, 1), bias=False)\n","      (bn): BatchNorm2d(64, eps=0.001, momentum=0.1, affine=True, track_running_stats=True)\n","    )\n","    (branch5x5_1): BasicConv2d(\n","      (conv): Conv2d(256, 48, kernel_size=(1, 1), stride=(1, 1), bias=False)\n","      (bn): BatchNorm2d(48, eps=0.001, momentum=0.1, affine=True, track_running_stats=True)\n","    )\n","    (branch5x5_2): BasicConv2d(\n","      (conv): Conv2d(48, 64, kernel_size=(5, 5), stride=(1, 1), padding=(2, 2), bias=False)\n","      (bn): BatchNorm2d(64, eps=0.001, momentum=0.1, affine=True, track_running_stats=True)\n","    )\n","    (branch3x3dbl_1): BasicConv2d(\n","      (conv): Conv2d(256, 64, kernel_size=(1, 1), stride=(1, 1), bias=False)\n","      (bn): BatchNorm2d(64, eps=0.001, momentum=0.1, affine=True, track_running_stats=True)\n","    )\n","    (branch3x3dbl_2): BasicConv2d(\n","      (conv): Conv2d(64, 96, kernel_size=(3, 3), stride=(1, 1), padding=(1, 1), bias=False)\n","      (bn): BatchNorm2d(96, eps=0.001, momentum=0.1, affine=True, track_running_stats=True)\n","    )\n","    (branch3x3dbl_3): BasicConv2d(\n","      (conv): Conv2d(96, 96, kernel_size=(3, 3), stride=(1, 1), padding=(1, 1), bias=False)\n","      (bn): BatchNorm2d(96, eps=0.001, momentum=0.1, affine=True, track_running_stats=True)\n","    )\n","    (branch_pool): BasicConv2d(\n","      (conv): Conv2d(256, 64, kernel_size=(1, 1), stride=(1, 1), bias=False)\n","      (bn): BatchNorm2d(64, eps=0.001, momentum=0.1, affine=True, track_running_stats=True)\n","    )\n","  )\n","  (Mixed_5d): InceptionA(\n","    (branch1x1): BasicConv2d(\n","      (conv): Conv2d(288, 64, kernel_size=(1, 1), stride=(1, 1), bias=False)\n","      (bn): BatchNorm2d(64, eps=0.001, momentum=0.1, affine=True, track_running_stats=True)\n","    )\n","    (branch5x5_1): BasicConv2d(\n","      (conv): Conv2d(288, 48, kernel_size=(1, 1), stride=(1, 1), bias=False)\n","      (bn): BatchNorm2d(48, eps=0.001, momentum=0.1, affine=True, track_running_stats=True)\n","    )\n","    (branch5x5_2): BasicConv2d(\n","      (conv): Conv2d(48, 64, kernel_size=(5, 5), stride=(1, 1), padding=(2, 2), bias=False)\n","      (bn): BatchNorm2d(64, eps=0.001, momentum=0.1, affine=True, track_running_stats=True)\n","    )\n","    (branch3x3dbl_1): BasicConv2d(\n","      (conv): Conv2d(288, 64, kernel_size=(1, 1), stride=(1, 1), bias=False)\n","      (bn): BatchNorm2d(64, eps=0.001, momentum=0.1, affine=True, track_running_stats=True)\n","    )\n","    (branch3x3dbl_2): BasicConv2d(\n","      (conv): Conv2d(64, 96, kernel_size=(3, 3), stride=(1, 1), padding=(1, 1), bias=False)\n","      (bn): BatchNorm2d(96, eps=0.001, momentum=0.1, affine=True, track_running_stats=True)\n","    )\n","    (branch3x3dbl_3): BasicConv2d(\n","      (conv): Conv2d(96, 96, kernel_size=(3, 3), stride=(1, 1), padding=(1, 1), bias=False)\n","      (bn): BatchNorm2d(96, eps=0.001, momentum=0.1, affine=True, track_running_stats=True)\n","    )\n","    (branch_pool): BasicConv2d(\n","      (conv): Conv2d(288, 64, kernel_size=(1, 1), stride=(1, 1), bias=False)\n","      (bn): BatchNorm2d(64, eps=0.001, momentum=0.1, affine=True, track_running_stats=True)\n","    )\n","  )\n","  (Mixed_6a): InceptionB(\n","    (branch3x3): BasicConv2d(\n","      (conv): Conv2d(288, 384, kernel_size=(3, 3), stride=(2, 2), bias=False)\n","      (bn): BatchNorm2d(384, eps=0.001, momentum=0.1, affine=True, track_running_stats=True)\n","    )\n","    (branch3x3dbl_1): BasicConv2d(\n","      (conv): Conv2d(288, 64, kernel_size=(1, 1), stride=(1, 1), bias=False)\n","      (bn): BatchNorm2d(64, eps=0.001, momentum=0.1, affine=True, track_running_stats=True)\n","    )\n","    (branch3x3dbl_2): BasicConv2d(\n","      (conv): Conv2d(64, 96, kernel_size=(3, 3), stride=(1, 1), padding=(1, 1), bias=False)\n","      (bn): BatchNorm2d(96, eps=0.001, momentum=0.1, affine=True, track_running_stats=True)\n","    )\n","    (branch3x3dbl_3): BasicConv2d(\n","      (conv): Conv2d(96, 96, kernel_size=(3, 3), stride=(2, 2), bias=False)\n","      (bn): BatchNorm2d(96, eps=0.001, momentum=0.1, affine=True, track_running_stats=True)\n","    )\n","  )\n","  (Mixed_6b): InceptionC(\n","    (branch1x1): BasicConv2d(\n","      (conv): Conv2d(768, 192, kernel_size=(1, 1), stride=(1, 1), bias=False)\n","      (bn): BatchNorm2d(192, eps=0.001, momentum=0.1, affine=True, track_running_stats=True)\n","    )\n","    (branch7x7_1): BasicConv2d(\n","      (conv): Conv2d(768, 128, kernel_size=(1, 1), stride=(1, 1), bias=False)\n","      (bn): BatchNorm2d(128, eps=0.001, momentum=0.1, affine=True, track_running_stats=True)\n","    )\n","    (branch7x7_2): BasicConv2d(\n","      (conv): Conv2d(128, 128, kernel_size=(1, 7), stride=(1, 1), padding=(0, 3), bias=False)\n","      (bn): BatchNorm2d(128, eps=0.001, momentum=0.1, affine=True, track_running_stats=True)\n","    )\n","    (branch7x7_3): BasicConv2d(\n","      (conv): Conv2d(128, 192, kernel_size=(7, 1), stride=(1, 1), padding=(3, 0), bias=False)\n","      (bn): BatchNorm2d(192, eps=0.001, momentum=0.1, affine=True, track_running_stats=True)\n","    )\n","    (branch7x7dbl_1): BasicConv2d(\n","      (conv): Conv2d(768, 128, kernel_size=(1, 1), stride=(1, 1), bias=False)\n","      (bn): BatchNorm2d(128, eps=0.001, momentum=0.1, affine=True, track_running_stats=True)\n","    )\n","    (branch7x7dbl_2): BasicConv2d(\n","      (conv): Conv2d(128, 128, kernel_size=(7, 1), stride=(1, 1), padding=(3, 0), bias=False)\n","      (bn): BatchNorm2d(128, eps=0.001, momentum=0.1, affine=True, track_running_stats=True)\n","    )\n","    (branch7x7dbl_3): BasicConv2d(\n","      (conv): Conv2d(128, 128, kernel_size=(1, 7), stride=(1, 1), padding=(0, 3), bias=False)\n","      (bn): BatchNorm2d(128, eps=0.001, momentum=0.1, affine=True, track_running_stats=True)\n","    )\n","    (branch7x7dbl_4): BasicConv2d(\n","      (conv): Conv2d(128, 128, kernel_size=(7, 1), stride=(1, 1), padding=(3, 0), bias=False)\n","      (bn): BatchNorm2d(128, eps=0.001, momentum=0.1, affine=True, track_running_stats=True)\n","    )\n","    (branch7x7dbl_5): BasicConv2d(\n","      (conv): Conv2d(128, 192, kernel_size=(1, 7), stride=(1, 1), padding=(0, 3), bias=False)\n","      (bn): BatchNorm2d(192, eps=0.001, momentum=0.1, affine=True, track_running_stats=True)\n","    )\n","    (branch_pool): BasicConv2d(\n","      (conv): Conv2d(768, 192, kernel_size=(1, 1), stride=(1, 1), bias=False)\n","      (bn): BatchNorm2d(192, eps=0.001, momentum=0.1, affine=True, track_running_stats=True)\n","    )\n","  )\n","  (Mixed_6c): InceptionC(\n","    (branch1x1): BasicConv2d(\n","      (conv): Conv2d(768, 192, kernel_size=(1, 1), stride=(1, 1), bias=False)\n","      (bn): BatchNorm2d(192, eps=0.001, momentum=0.1, affine=True, track_running_stats=True)\n","    )\n","    (branch7x7_1): BasicConv2d(\n","      (conv): Conv2d(768, 160, kernel_size=(1, 1), stride=(1, 1), bias=False)\n","      (bn): BatchNorm2d(160, eps=0.001, momentum=0.1, affine=True, track_running_stats=True)\n","    )\n","    (branch7x7_2): BasicConv2d(\n","      (conv): Conv2d(160, 160, kernel_size=(1, 7), stride=(1, 1), padding=(0, 3), bias=False)\n","      (bn): BatchNorm2d(160, eps=0.001, momentum=0.1, affine=True, track_running_stats=True)\n","    )\n","    (branch7x7_3): BasicConv2d(\n","      (conv): Conv2d(160, 192, kernel_size=(7, 1), stride=(1, 1), padding=(3, 0), bias=False)\n","      (bn): BatchNorm2d(192, eps=0.001, momentum=0.1, affine=True, track_running_stats=True)\n","    )\n","    (branch7x7dbl_1): BasicConv2d(\n","      (conv): Conv2d(768, 160, kernel_size=(1, 1), stride=(1, 1), bias=False)\n","      (bn): BatchNorm2d(160, eps=0.001, momentum=0.1, affine=True, track_running_stats=True)\n","    )\n","    (branch7x7dbl_2): BasicConv2d(\n","      (conv): Conv2d(160, 160, kernel_size=(7, 1), stride=(1, 1), padding=(3, 0), bias=False)\n","      (bn): BatchNorm2d(160, eps=0.001, momentum=0.1, affine=True, track_running_stats=True)\n","    )\n","    (branch7x7dbl_3): BasicConv2d(\n","      (conv): Conv2d(160, 160, kernel_size=(1, 7), stride=(1, 1), padding=(0, 3), bias=False)\n","      (bn): BatchNorm2d(160, eps=0.001, momentum=0.1, affine=True, track_running_stats=True)\n","    )\n","    (branch7x7dbl_4): BasicConv2d(\n","      (conv): Conv2d(160, 160, kernel_size=(7, 1), stride=(1, 1), padding=(3, 0), bias=False)\n","      (bn): BatchNorm2d(160, eps=0.001, momentum=0.1, affine=True, track_running_stats=True)\n","    )\n","    (branch7x7dbl_5): BasicConv2d(\n","      (conv): Conv2d(160, 192, kernel_size=(1, 7), stride=(1, 1), padding=(0, 3), bias=False)\n","      (bn): BatchNorm2d(192, eps=0.001, momentum=0.1, affine=True, track_running_stats=True)\n","    )\n","    (branch_pool): BasicConv2d(\n","      (conv): Conv2d(768, 192, kernel_size=(1, 1), stride=(1, 1), bias=False)\n","      (bn): BatchNorm2d(192, eps=0.001, momentum=0.1, affine=True, track_running_stats=True)\n","    )\n","  )\n","  (Mixed_6d): InceptionC(\n","    (branch1x1): BasicConv2d(\n","      (conv): Conv2d(768, 192, kernel_size=(1, 1), stride=(1, 1), bias=False)\n","      (bn): BatchNorm2d(192, eps=0.001, momentum=0.1, affine=True, track_running_stats=True)\n","    )\n","    (branch7x7_1): BasicConv2d(\n","      (conv): Conv2d(768, 160, kernel_size=(1, 1), stride=(1, 1), bias=False)\n","      (bn): BatchNorm2d(160, eps=0.001, momentum=0.1, affine=True, track_running_stats=True)\n","    )\n","    (branch7x7_2): BasicConv2d(\n","      (conv): Conv2d(160, 160, kernel_size=(1, 7), stride=(1, 1), padding=(0, 3), bias=False)\n","      (bn): BatchNorm2d(160, eps=0.001, momentum=0.1, affine=True, track_running_stats=True)\n","    )\n","    (branch7x7_3): BasicConv2d(\n","      (conv): Conv2d(160, 192, kernel_size=(7, 1), stride=(1, 1), padding=(3, 0), bias=False)\n","      (bn): BatchNorm2d(192, eps=0.001, momentum=0.1, affine=True, track_running_stats=True)\n","    )\n","    (branch7x7dbl_1): BasicConv2d(\n","      (conv): Conv2d(768, 160, kernel_size=(1, 1), stride=(1, 1), bias=False)\n","      (bn): BatchNorm2d(160, eps=0.001, momentum=0.1, affine=True, track_running_stats=True)\n","    )\n","    (branch7x7dbl_2): BasicConv2d(\n","      (conv): Conv2d(160, 160, kernel_size=(7, 1), stride=(1, 1), padding=(3, 0), bias=False)\n","      (bn): BatchNorm2d(160, eps=0.001, momentum=0.1, affine=True, track_running_stats=True)\n","    )\n","    (branch7x7dbl_3): BasicConv2d(\n","      (conv): Conv2d(160, 160, kernel_size=(1, 7), stride=(1, 1), padding=(0, 3), bias=False)\n","      (bn): BatchNorm2d(160, eps=0.001, momentum=0.1, affine=True, track_running_stats=True)\n","    )\n","    (branch7x7dbl_4): BasicConv2d(\n","      (conv): Conv2d(160, 160, kernel_size=(7, 1), stride=(1, 1), padding=(3, 0), bias=False)\n","      (bn): BatchNorm2d(160, eps=0.001, momentum=0.1, affine=True, track_running_stats=True)\n","    )\n","    (branch7x7dbl_5): BasicConv2d(\n","      (conv): Conv2d(160, 192, kernel_size=(1, 7), stride=(1, 1), padding=(0, 3), bias=False)\n","      (bn): BatchNorm2d(192, eps=0.001, momentum=0.1, affine=True, track_running_stats=True)\n","    )\n","    (branch_pool): BasicConv2d(\n","      (conv): Conv2d(768, 192, kernel_size=(1, 1), stride=(1, 1), bias=False)\n","      (bn): BatchNorm2d(192, eps=0.001, momentum=0.1, affine=True, track_running_stats=True)\n","    )\n","  )\n","  (Mixed_6e): InceptionC(\n","    (branch1x1): BasicConv2d(\n","      (conv): Conv2d(768, 192, kernel_size=(1, 1), stride=(1, 1), bias=False)\n","      (bn): BatchNorm2d(192, eps=0.001, momentum=0.1, affine=True, track_running_stats=True)\n","    )\n","    (branch7x7_1): BasicConv2d(\n","      (conv): Conv2d(768, 192, kernel_size=(1, 1), stride=(1, 1), bias=False)\n","      (bn): BatchNorm2d(192, eps=0.001, momentum=0.1, affine=True, track_running_stats=True)\n","    )\n","    (branch7x7_2): BasicConv2d(\n","      (conv): Conv2d(192, 192, kernel_size=(1, 7), stride=(1, 1), padding=(0, 3), bias=False)\n","      (bn): BatchNorm2d(192, eps=0.001, momentum=0.1, affine=True, track_running_stats=True)\n","    )\n","    (branch7x7_3): BasicConv2d(\n","      (conv): Conv2d(192, 192, kernel_size=(7, 1), stride=(1, 1), padding=(3, 0), bias=False)\n","      (bn): BatchNorm2d(192, eps=0.001, momentum=0.1, affine=True, track_running_stats=True)\n","    )\n","    (branch7x7dbl_1): BasicConv2d(\n","      (conv): Conv2d(768, 192, kernel_size=(1, 1), stride=(1, 1), bias=False)\n","      (bn): BatchNorm2d(192, eps=0.001, momentum=0.1, affine=True, track_running_stats=True)\n","    )\n","    (branch7x7dbl_2): BasicConv2d(\n","      (conv): Conv2d(192, 192, kernel_size=(7, 1), stride=(1, 1), padding=(3, 0), bias=False)\n","      (bn): BatchNorm2d(192, eps=0.001, momentum=0.1, affine=True, track_running_stats=True)\n","    )\n","    (branch7x7dbl_3): BasicConv2d(\n","      (conv): Conv2d(192, 192, kernel_size=(1, 7), stride=(1, 1), padding=(0, 3), bias=False)\n","      (bn): BatchNorm2d(192, eps=0.001, momentum=0.1, affine=True, track_running_stats=True)\n","    )\n","    (branch7x7dbl_4): BasicConv2d(\n","      (conv): Conv2d(192, 192, kernel_size=(7, 1), stride=(1, 1), padding=(3, 0), bias=False)\n","      (bn): BatchNorm2d(192, eps=0.001, momentum=0.1, affine=True, track_running_stats=True)\n","    )\n","    (branch7x7dbl_5): BasicConv2d(\n","      (conv): Conv2d(192, 192, kernel_size=(1, 7), stride=(1, 1), padding=(0, 3), bias=False)\n","      (bn): BatchNorm2d(192, eps=0.001, momentum=0.1, affine=True, track_running_stats=True)\n","    )\n","    (branch_pool): BasicConv2d(\n","      (conv): Conv2d(768, 192, kernel_size=(1, 1), stride=(1, 1), bias=False)\n","      (bn): BatchNorm2d(192, eps=0.001, momentum=0.1, affine=True, track_running_stats=True)\n","    )\n","  )\n","  (AuxLogits): InceptionAux(\n","    (conv0): BasicConv2d(\n","      (conv): Conv2d(768, 128, kernel_size=(1, 1), stride=(1, 1), bias=False)\n","      (bn): BatchNorm2d(128, eps=0.001, momentum=0.1, affine=True, track_running_stats=True)\n","    )\n","    (conv1): BasicConv2d(\n","      (conv): Conv2d(128, 768, kernel_size=(5, 5), stride=(1, 1), bias=False)\n","      (bn): BatchNorm2d(768, eps=0.001, momentum=0.1, affine=True, track_running_stats=True)\n","    )\n","    (fc): Linear(in_features=768, out_features=1000, bias=True)\n","  )\n","  (Mixed_7a): InceptionD(\n","    (branch3x3_1): BasicConv2d(\n","      (conv): Conv2d(768, 192, kernel_size=(1, 1), stride=(1, 1), bias=False)\n","      (bn): BatchNorm2d(192, eps=0.001, momentum=0.1, affine=True, track_running_stats=True)\n","    )\n","    (branch3x3_2): BasicConv2d(\n","      (conv): Conv2d(192, 320, kernel_size=(3, 3), stride=(2, 2), bias=False)\n","      (bn): BatchNorm2d(320, eps=0.001, momentum=0.1, affine=True, track_running_stats=True)\n","    )\n","    (branch7x7x3_1): BasicConv2d(\n","      (conv): Conv2d(768, 192, kernel_size=(1, 1), stride=(1, 1), bias=False)\n","      (bn): BatchNorm2d(192, eps=0.001, momentum=0.1, affine=True, track_running_stats=True)\n","    )\n","    (branch7x7x3_2): BasicConv2d(\n","      (conv): Conv2d(192, 192, kernel_size=(1, 7), stride=(1, 1), padding=(0, 3), bias=False)\n","      (bn): BatchNorm2d(192, eps=0.001, momentum=0.1, affine=True, track_running_stats=True)\n","    )\n","    (branch7x7x3_3): BasicConv2d(\n","      (conv): Conv2d(192, 192, kernel_size=(7, 1), stride=(1, 1), padding=(3, 0), bias=False)\n","      (bn): BatchNorm2d(192, eps=0.001, momentum=0.1, affine=True, track_running_stats=True)\n","    )\n","    (branch7x7x3_4): BasicConv2d(\n","      (conv): Conv2d(192, 192, kernel_size=(3, 3), stride=(2, 2), bias=False)\n","      (bn): BatchNorm2d(192, eps=0.001, momentum=0.1, affine=True, track_running_stats=True)\n","    )\n","  )\n","  (Mixed_7b): InceptionE(\n","    (branch1x1): BasicConv2d(\n","      (conv): Conv2d(1280, 320, kernel_size=(1, 1), stride=(1, 1), bias=False)\n","      (bn): BatchNorm2d(320, eps=0.001, momentum=0.1, affine=True, track_running_stats=True)\n","    )\n","    (branch3x3_1): BasicConv2d(\n","      (conv): Conv2d(1280, 384, kernel_size=(1, 1), stride=(1, 1), bias=False)\n","      (bn): BatchNorm2d(384, eps=0.001, momentum=0.1, affine=True, track_running_stats=True)\n","    )\n","    (branch3x3_2a): BasicConv2d(\n","      (conv): Conv2d(384, 384, kernel_size=(1, 3), stride=(1, 1), padding=(0, 1), bias=False)\n","      (bn): BatchNorm2d(384, eps=0.001, momentum=0.1, affine=True, track_running_stats=True)\n","    )\n","    (branch3x3_2b): BasicConv2d(\n","      (conv): Conv2d(384, 384, kernel_size=(3, 1), stride=(1, 1), padding=(1, 0), bias=False)\n","      (bn): BatchNorm2d(384, eps=0.001, momentum=0.1, affine=True, track_running_stats=True)\n","    )\n","    (branch3x3dbl_1): BasicConv2d(\n","      (conv): Conv2d(1280, 448, kernel_size=(1, 1), stride=(1, 1), bias=False)\n","      (bn): BatchNorm2d(448, eps=0.001, momentum=0.1, affine=True, track_running_stats=True)\n","    )\n","    (branch3x3dbl_2): BasicConv2d(\n","      (conv): Conv2d(448, 384, kernel_size=(3, 3), stride=(1, 1), padding=(1, 1), bias=False)\n","      (bn): BatchNorm2d(384, eps=0.001, momentum=0.1, affine=True, track_running_stats=True)\n","    )\n","    (branch3x3dbl_3a): BasicConv2d(\n","      (conv): Conv2d(384, 384, kernel_size=(1, 3), stride=(1, 1), padding=(0, 1), bias=False)\n","      (bn): BatchNorm2d(384, eps=0.001, momentum=0.1, affine=True, track_running_stats=True)\n","    )\n","    (branch3x3dbl_3b): BasicConv2d(\n","      (conv): Conv2d(384, 384, kernel_size=(3, 1), stride=(1, 1), padding=(1, 0), bias=False)\n","      (bn): BatchNorm2d(384, eps=0.001, momentum=0.1, affine=True, track_running_stats=True)\n","    )\n","    (branch_pool): BasicConv2d(\n","      (conv): Conv2d(1280, 192, kernel_size=(1, 1), stride=(1, 1), bias=False)\n","      (bn): BatchNorm2d(192, eps=0.001, momentum=0.1, affine=True, track_running_stats=True)\n","    )\n","  )\n","  (Mixed_7c): InceptionE(\n","    (branch1x1): BasicConv2d(\n","      (conv): Conv2d(2048, 320, kernel_size=(1, 1), stride=(1, 1), bias=False)\n","      (bn): BatchNorm2d(320, eps=0.001, momentum=0.1, affine=True, track_running_stats=True)\n","    )\n","    (branch3x3_1): BasicConv2d(\n","      (conv): Conv2d(2048, 384, kernel_size=(1, 1), stride=(1, 1), bias=False)\n","      (bn): BatchNorm2d(384, eps=0.001, momentum=0.1, affine=True, track_running_stats=True)\n","    )\n","    (branch3x3_2a): BasicConv2d(\n","      (conv): Conv2d(384, 384, kernel_size=(1, 3), stride=(1, 1), padding=(0, 1), bias=False)\n","      (bn): BatchNorm2d(384, eps=0.001, momentum=0.1, affine=True, track_running_stats=True)\n","    )\n","    (branch3x3_2b): BasicConv2d(\n","      (conv): Conv2d(384, 384, kernel_size=(3, 1), stride=(1, 1), padding=(1, 0), bias=False)\n","      (bn): BatchNorm2d(384, eps=0.001, momentum=0.1, affine=True, track_running_stats=True)\n","    )\n","    (branch3x3dbl_1): BasicConv2d(\n","      (conv): Conv2d(2048, 448, kernel_size=(1, 1), stride=(1, 1), bias=False)\n","      (bn): BatchNorm2d(448, eps=0.001, momentum=0.1, affine=True, track_running_stats=True)\n","    )\n","    (branch3x3dbl_2): BasicConv2d(\n","      (conv): Conv2d(448, 384, kernel_size=(3, 3), stride=(1, 1), padding=(1, 1), bias=False)\n","      (bn): BatchNorm2d(384, eps=0.001, momentum=0.1, affine=True, track_running_stats=True)\n","    )\n","    (branch3x3dbl_3a): BasicConv2d(\n","      (conv): Conv2d(384, 384, kernel_size=(1, 3), stride=(1, 1), padding=(0, 1), bias=False)\n","      (bn): BatchNorm2d(384, eps=0.001, momentum=0.1, affine=True, track_running_stats=True)\n","    )\n","    (branch3x3dbl_3b): BasicConv2d(\n","      (conv): Conv2d(384, 384, kernel_size=(3, 1), stride=(1, 1), padding=(1, 0), bias=False)\n","      (bn): BatchNorm2d(384, eps=0.001, momentum=0.1, affine=True, track_running_stats=True)\n","    )\n","    (branch_pool): BasicConv2d(\n","      (conv): Conv2d(2048, 192, kernel_size=(1, 1), stride=(1, 1), bias=False)\n","      (bn): BatchNorm2d(192, eps=0.001, momentum=0.1, affine=True, track_running_stats=True)\n","    )\n","  )\n","  (avgpool): AdaptiveAvgPool2d(output_size=(1, 1))\n","  (dropout): Dropout(p=0.5, inplace=False)\n","  (fc): Linear(in_features=2048, out_features=1000, bias=True)\n",")>"]},"metadata":{"tags":[]},"execution_count":5}]},{"cell_type":"code","metadata":{"id":"97Vb94IWSOgH","executionInfo":{"status":"ok","timestamp":1628355067281,"user_tz":-540,"elapsed":393,"user":{"displayName":"JINSU KIM","photoUrl":"https://lh3.googleusercontent.com/a-/AOh14GgcLu5kpD5kTukDHzQytyk6kDsra-9npu-W2pfp=s64","userId":"172787221322182
…
